sin_model.tflite (tflite, 3236 bytes, 5 tensors)

sequential_8/dense_17/BiasAdd/ReadVariableOp f4 [16]
000000 00 00 00 00 6e 4c 8b be 00 00 00 00 00 00 00 00
       0.0 -0.2720675 0.0 0.0
000010 50 0f 07 3e 6d a6 83 3d 25 dd aa 3d 67 d8 49 bd
       0.13189435 0.064282276 0.08342961 -0.049278643
000020 ae 79 dc 3d 00 00 00 00 00 00 00 00 00 00 00 00
       0.10765396 0.0 0.0 0.0
000030 73 13 e9 bd 52 35 21 be ab dc 88 be c6 f0 32 bf
       -0.11380663 -0.15742996 -0.26730856 -0.6989864

sequential_8/dense_16/BiasAdd/ReadVariableOp f4 [16]
000000 01 ba 2c bf 97 76 b4 be 00 00 00 00 25 a7 b3 be
       -0.6747132 -0.35246727 0.0 -0.3508846
000010 00 00 00 00 00 00 00 00 00 00 00 00 7e b2 03 bf
       0.0 0.0 0.0 -0.5144423
000020 a3 de 05 bf fc e3 0a 3e 00 00 00 00 00 00 00 00
       -0.5229284 0.13563532 0.0 0.0
000030 56 db 94 be 01 30 23 bf 00 00 00 00 00 00 00 00
       -0.2907359 -0.63745123 0.0 0.0

sequential_8/dense_16/MatMul f4 [16, 1]
000000 a0 99 ae 3e 4a ce 55 3e f2 47 e6 be 8f 3b 03 3e
       0.34101582 0.20879474 -0.44976765 0.12815689
000010 80 ba 43 bc 84 80 87 be f3 eb 00 bf 2e 6c 40 3e
       -0.0119463205 -0.26465237 -0.5036003 0.18791267
000020 0f ae 9b 3e 0e fa 3b 3f 80 47 a4 bb 2d 77 0a bf
       0.30406234 0.7342843 -0.0050134063 -0.540881
000030 32 15 88 3e a8 85 36 3e ee 70 07 bf 3c 6d 48 be
       0.2657867 0.17824423 -0.5290669 -0.1957292

sequential_8/dense_17/MatMul f4 [16, 16]
000000 6b 17 81 3e 25 64 91 3e e2 55 3c 3e 65 76 be be
       0.2521318 0.28396717 0.18392137 -0.37199703
000010 65 c7 4e be 20 bd bc bd ca 6f 7f be 4f 92 82 3e
       -0.2019325 -0.0921576 -0.24944988 0.2550225
000020 88 03 dc bd 6d d2 ce be 6e fb 66 3e 2c f2 ad 3d
       -0.10742861 -0.40394917 0.2255685 0.08493456
000030 1a 4c a3 be 78 91 0f be 85 c9 b6 3e 9e 3d c6 be
       -0.31893998 -0.14020336 0.35700622 -0.38718885
000040 bf 6d c6 3d eb ae bf 3e 86 e3 1d 3e 89 e2 00 be
       0.09688901 0.3743814 0.15418825 -0.12586416
000050 66 a4 5f be 10 97 d9 be 4f 83 bc 3e 89 7a c4 be
       -0.21840057 -0.42498064 0.3681893 -0.38374737
000060 26 3a 7c 3e 38 a4 d7 3e 40 25 67 bd 0c 07 66 be
       0.24631557 0.42117476 -0.05643201 -0.22463626
000070 7c 50 6f 3e 97 2d f3 3d 39 fd 88 3e 6c 23 fa 3d
       0.23370546 0.1187393 0.26755694 0.122137874
000080 9c d2 23 be 9c 08 74 be 6b ef c3 be 4c 6f e5 bd
       -0.1599831 -0.23831409 -0.382686 -0.11202869
000090 68 64 5a be 84 5f e9 bd 60 1a a4 be a4 e3 a1 bd
       -0.21327364 -0.11395171 -0.32051373 -0.07904747
0000a0 e8 b6 6b bd a1 23 bd be 29 f5 a7 3e c0 81 91 bd
       -0.05754748 -0.36941245 0.3280423 -0.07104826
0000b0 1c a9 8d be 11 56 dd 3e bc 2c 91 3d 96 11 79 3e
       -0.27668083 0.43229726 0.070886105 0.24323115
0000c0 3b 9c bc be 4c 5b ba 3d 00 54 90 be 7a 44 ce be
       -0.36837944 0.09099445 -0.28189087 -0.40286618
0000d0 cc a8 cb be 74 79 3e be 1f 4f 87 3e 68 8a 2b bd
       -0.3977722 -0.18601018 0.26427552 -0.04188004
0000e0 54 35 b9 3d 58 be d3 be b4 1e dc bd e1 89 c8 3e
       0.09043375 -0.41356158 -0.10748044 0.39167693
0000f0 ff d8 8d 3e 1d 42 a6 3e 26 b6 6c 3e 3b f3 94 3e
       0.27704617 0.32472315 0.23116359 0.2909182
000100 77 96 75 be 90 35 86 3e 42 ac 1c be ed 93 cf be
       -0.23983179 0.2621274 -0.15300086 -0.40542546
000110 8c db b6 bd 84 93 75 be 2e 0e 20 be ac cd 52 3c
       -0.08928594 -0.23982054 -0.15630409 0.012866419
000120 ca 75 49 be 5b a6 d4 3c 8a ce 6f 3e 61 de 8c 3e
       -0.19673839 0.02595823 0.23418632 0.27513412
000130 d6 2b a0 3e 4d 2a 80 be e0 57 86 bd c0 85 f5 3c
       0.31283444 -0.25032273 -0.065597296 0.029971004
000140 9e 28 86 3d cb e8 06 bf a9 c0 c9 3e b8 40 e1 be
       0.06550716 -0.52698964 0.394048 -0.4399469
000150 06 00 3b 3e d4 6b 1b be 3c b5 95 3d 94 bd a4 be
       0.18261728 -0.15177852 0.07309958 -0.32175887
000160 a4 86 57 3e aa 8f 1f 3e d4 2d 15 be 82 7b dd be
       0.21047455 0.15582147 -0.14568263 -0.4325829
000170 20 e0 f1 bc ef b0 57 bf 60 91 aa bd 7c fb a0 be
       -0.029525816 -0.84254354 -0.08328509 -0.31441867
000180 79 e7 c8 be 25 57 86 be 14 2d 24 be a2 fb 22 bf
       -0.392391 -0.2623836 -0.16032821 -0.6366521
000190 e8 f6 27 bd a8 ae e6 bd ce 94 1b be 38 ce 0d bf
       -0.041006953 -0.11263782 -0.15193483 -0.5539279
0001a0 e2 45 24 bf 83 fd d7 3e 7c 3c f7 bd fc 33 5e be
       -0.6416913 0.42185602 -0.12072083 -0.21699518
0001b0 78 ee 14 bf 7f c0 6f be 72 02 62 3e da 5d a8 be
       -0.58176374 -0.23413275 0.22071245 -0.32884103
0001c0 c6 2a 8a be 6b 3f d1 3d 32 61 bd be d1 34 e2 3e
       -0.2698576 0.10217174 -0.36988217 0.4418092
0001d0 bc ce 9b 3d ee f7 7d 3e 0d 4a da 3e d7 3c 8c 3e
       0.07607791 0.24801609 0.4263462 0.27390167
0001e0 13 10 a6 3e c0 f5 5a 3e 64 cc 8e be e4 5f db be
       0.3243414 0.21382809 -0.27890313 -0.42846596
0001f0 fe bf 16 3e fc af e7 3e 4a 67 75 3e dd 4f c2 3e
       0.14721677 0.45251453 0.23965183 0.37951556
000200 8e 7a 9f be 21 08 a2 be 70 b3 88 bc f5 b2 17 bf
       -0.3114819 -0.31646827 -0.016687125 -0.5925744
000210 ca 6c 47 3e 99 ed b4 3e b2 31 9a be 2a f8 c0 be
       0.19475093 0.35337523 -0.3011604 -0.37689334
000220 75 04 06 bf 2c bf ff 3e fc 0c f5 bd a8 67 97 be
       -0.5235055 0.4995054 -0.11965367 -0.2957127
000230 e8 2e 4d bf d1 4a 4d bf d4 0d ae 3d f0 d0 88 bd
       -0.801497 -0.80192286 0.08498731 -0.06680477
000240 9f ab 84 3e e0 43 6a bc f2 64 71 be f6 89 b9 be
       0.25912187 -0.014298409 -0.23573664 -0.36238068
000250 40 ed da bc 58 7d 38 be 00 7d 8e be 04 21 23 be
       -0.026724458 -0.18016565 -0.27829742 -0.15930563
000260 2b 86 a8 3e c7 bd aa be c0 1a d4 be ce 1f 9f be
       0.32914862 -0.33347914 -0.4142666 -0.31078953
000270 a0 dd 09 3c 37 02 b7 be 7b 7e 91 be 12 83 3a 3e
       0.008414656 -0.35743877 -0.2841681 0.18214062
000280 71 dc a5 be ba 4f 00 3e 54 0c 01 be f6 53 7d be
       -0.32394746 0.12530413 -0.12602359 -0.2473906
000290 20 5b 88 3c e0 51 e6 bd e7 71 d3 be 10 6d 8d bc
       0.016645014 -0.11246085 -0.41297838 -0.01726392
0002a0 62 d3 5e 3e 3c 75 fb bd 9a 60 59 3e c6 db be be
       0.21760324 -0.1227822 0.21228257 -0.3727705
0002b0 80 15 ef bb 08 e3 ad be d8 bd 98 be a1 15 aa 3e
       -0.007296264 -0.33962274 -0.2983234 0.33219627
0002c0 3a 64 91 be 6b 02 bf be c8 35 66 3d 40 4d 62 bc
       -0.2839678 -0.37306532 0.056203634 -0.013812363
0002d0 2e 71 a1 be c4 31 a6 bd 35 7a b6 3e c4 09 d9 be
       -0.31531662 -0.08114961 0.35640112 -0.42390263
0002e0 98 f6 50 bd 9b e2 46 be 84 f6 bd bd 30 6e 45 be
       -0.05101642 -0.1942238 -0.09275535 -0.19280314
0002f0 90 21 9c be 07 31 89 3e fc dc ca 3d 96 8e b1 be
       -0.30494356 0.26795217 0.09905431 -0.34679097
000300 a8 ac 9e 3e 00 2d 9c 3e 0f 12 ce 3e 9e 6a 13 3e
       0.309911 0.30503082 0.40248153 0.1439614
000310 d9 35 95 3e 4d d5 99 3e 8e 52 2f 3e 52 14 80 3d
       0.29142645 0.30045548 0.17121336 0.06253876
000320 78 9a a2 3e ce d9 32 3e cf dd d9 3e ca d7 59 3e
       0.31758475 0.17465898 0.4255204 0.21273723
000330 51 3a 7f be a8 6f 4e 3d 14 fa 0e be 9a 62 53 3e
       -0.2492459 0.050399452 -0.13962585 0.20643082
000340 6d a8 7e bd 61 bd b2 3e 94 df d7 3d f3 1b 07 bf
       -0.062172342 0.3491011 0.10540691 -0.5277702
000350 0e a5 0d be 48 b1 54 bd da 0e 78 3e 58 ea 1b 3e
       -0.13832495 -0.05192688 0.24224415 0.15226114
000360 9b d0 3c 3e 18 e4 79 3e 9b 37 94 3e 33 dd c7 be
       0.18438952 0.24403417 0.28948674 -0.3903595
000370 b5 e7 81 3e 69 2b 17 bf 15 a8 92 be e6 26 8e be
       0.2537209 -0.59050614 -0.2864386 -0.27764052
000380 6a a1 86 3b be 00 80 be 40 6b 92 3b b6 ba 96 be
       0.0041085975 -0.25000566 0.0044683516 -0.29439324
000390 16 b1 42 be 63 01 c4 3e a8 a0 1d 3d 14 f3 b2 3e
       -0.19012865 0.38282308 0.038483292 0.3495108
0003a0 a5 17 ad 3e d2 da d2 3e 7b bc d7 be 96 81 6d 3e
       0.33807102 0.41182572 -0.42135987 0.23193964
0003b0 58 cd 52 3e d5 31 0f bf 21 f4 9f be 6f db 85 be
       0.20586145 -0.5593541 -0.31240943 -0.26143977
0003c0 19 dc 18 3f 55 24 15 3f 0c d4 0b be 9a dd 1f ba
       0.5971084 0.58258563 -0.13655108 -0.000609839
0003d0 c0 6f ba 3c 49 7a b0 3e a8 03 43 bd 0e 5d e1 3e
       0.022758365 0.34468296 -0.04761091 0.44016308
0003e0 25 8a 0a 3f 1f e0 9a be bf bb d8 3e 15 22 b2 be
       0.5411704 -0.30249116 0.4233074 -0.34791628
0003f0 a3 79 42 bc 6c a1 29 3f 86 11 4b 3e 9e b8 7f 3e
       -0.011869821 0.66261935 0.19830903 0.2497277

sequential_8/dense_18/MatMul f4 [1, 16]
000000 7c b0 5c 3e 90 3f 54 be 21 ef 91 be fe de cb 3e
       0.21551698 -0.20727372 -0.28502753 0.39818567
000010 9a 31 fc be 1c 3b 37 3f 02 79 a4 3f c7 ce 8d 3e
       -0.49256593 0.7157457 1.2849429 0.2769682
000020 e4 59 7a 3f 78 cc 00 3e ee 87 3e be ec 86 09 bf
       0.9779341 0.12577999 -0.1860654 -0.537215
000030 63 5b e7 bd 42 b2 a8 be b2 83 c6 bd d8 24 eb 3f
       -0.112967275 -0.329485 -0.09693088 1.8370619
